==========================================================================================
Layer (type:depth-idx)                   Output Shape              Param #
==========================================================================================
UNet                                     [1, 19, 64, 64]           --
├─DownSample: 1-1                        [1, 32, 64, 64]           --
│    └─DoubleConv: 2-1                   [1, 32, 64, 64]           --
│    │    └─Sequential: 3-1              [1, 32, 64, 64]           10,144
│    └─MaxPool2d: 2-2                    [1, 32, 32, 32]           --
├─DownSample: 1-2                        [1, 64, 32, 32]           --
│    └─DoubleConv: 2-3                   [1, 64, 32, 32]           --
│    │    └─Sequential: 3-2              [1, 64, 32, 32]           55,424
│    └─MaxPool2d: 2-4                    [1, 64, 16, 16]           --
├─DownSample: 1-3                        [1, 128, 16, 16]          --
│    └─DoubleConv: 2-5                   [1, 128, 16, 16]          --
│    │    └─Sequential: 3-3              [1, 128, 16, 16]          221,440
│    └─MaxPool2d: 2-6                    [1, 128, 8, 8]            --
├─DownSample: 1-4                        [1, 256, 8, 8]            --
│    └─DoubleConv: 2-7                   [1, 256, 8, 8]            --
│    │    └─Sequential: 3-4              [1, 256, 8, 8]            885,248
│    └─MaxPool2d: 2-8                    [1, 256, 4, 4]            --
├─DoubleConv: 1-5                        [1, 512, 4, 4]            --
│    └─Sequential: 2-9                   [1, 512, 4, 4]            --
│    │    └─Conv2d: 3-5                  [1, 512, 4, 4]            1,180,160
│    │    └─ReLU: 3-6                    [1, 512, 4, 4]            --
│    │    └─Conv2d: 3-7                  [1, 512, 4, 4]            2,359,808
│    │    └─ReLU: 3-8                    [1, 512, 4, 4]            --
├─UpSample: 1-6                          [1, 256, 8, 8]            --
│    └─ConvTranspose2d: 2-10             [1, 256, 8, 8]            524,544
│    └─DoubleConv: 2-11                  [1, 256, 8, 8]            --
│    │    └─Sequential: 3-9              [1, 256, 8, 8]            1,769,984
├─UpSample: 1-7                          [1, 128, 16, 16]          --
│    └─ConvTranspose2d: 2-12             [1, 128, 16, 16]          131,200
│    └─DoubleConv: 2-13                  [1, 128, 16, 16]          --
│    │    └─Sequential: 3-10             [1, 128, 16, 16]          442,624
├─UpSample: 1-8                          [1, 64, 32, 32]           --
│    └─ConvTranspose2d: 2-14             [1, 64, 32, 32]           32,832
│    └─DoubleConv: 2-15                  [1, 64, 32, 32]           --
│    │    └─Sequential: 3-11             [1, 64, 32, 32]           110,720
├─UpSample: 1-9                          [1, 32, 64, 64]           --
│    └─ConvTranspose2d: 2-16             [1, 32, 64, 64]           8,224
│    └─DoubleConv: 2-17                  [1, 32, 64, 64]           --
│    │    └─Sequential: 3-12             [1, 32, 64, 64]           27,712
├─Conv2d: 1-10                           [1, 19, 64, 64]           627
==========================================================================================
Total params: 7,760,691
Trainable params: 7,760,691
Non-trainable params: 0
Total mult-adds (Units.MEGABYTES): 858.80
==========================================================================================
Input size (MB): 0.05
Forward/backward pass size (MB): 10.58
Params size (MB): 31.04
Estimated Total Size (MB): 41.68
…
