
Layer (type:depth-idx)                   Output Shape              Param #

UNet                                     [1, 19, 64, 64]           --
├─DownSample: 1-1                        [1, 128, 64, 64]          --
│    └─DoubleConv: 2-1                   [1, 128, 64, 64]          --
│    │    └─Sequential: 3-1              [1, 128, 64, 64]          151,168
│    └─MaxPool2d: 2-2                    [1, 128, 32, 32]          --
├─DownSample: 1-2                        [1, 256, 32, 32]          --
│    └─DoubleConv: 2-3                   [1, 256, 32, 32]          --
│    │    └─Sequential: 3-2              [1, 256, 32, 32]          885,248
│    └─MaxPool2d: 2-4                    [1, 256, 16, 16]          --
├─DownSample: 1-3                        [1, 512, 16, 16]          --
│    └─DoubleConv: 2-5                   [1, 512, 16, 16]          --
│    │    └─Sequential: 3-3              [1, 512, 16, 16]          3,539,968
│    └─MaxPool2d: 2-6                    [1, 512, 8, 8]            --
├─DownSample: 1-4                        [1, 1024, 8, 8]           --
│    └─DoubleConv: 2-7                   [1, 1024, 8, 8]           --
│    │    └─Sequential: 3-4              [1, 1024, 8, 8]           14,157,824
│    └─MaxPool2d: 2-8                    [1, 1024, 4, 4]           --
├─DoubleConv: 1-5                        [1, 2048, 4, 4]           --
│    └─Sequential: 2-9                   [1, 2048, 4, 4]           --
│    │    └─Conv2d: 3-5                  [1, 2048, 4, 4]           18,876,416
│    │    └─ReLU: 3-6                    [1, 2048, 4, 4]           --
│    │    └─Conv2d: 3-7                  [1, 2048, 4, 4]           37,750,784
│    │    └─ReLU: 3-8                    [1, 2048, 4, 4]           --
├─UpSample: 1-6                          [1, 1024, 8, 8]           --
│    └─ConvTranspose2d: 2-10             [1, 1024, 8, 8]           8,389,632
│    └─DoubleConv: 2-11                  [1, 1024, 8, 8]           --
│    │    └─Sequential: 3-9              [1, 1024, 8, 8]           28,313,600
├─UpSample: 1-7                          [1, 512, 16, 16]          --
│    └─ConvTranspose2d: 2-12             [1, 512, 16, 16]          2,097,664
│    └─DoubleConv: 2-13                  [1, 512, 16, 16]          --
│    │    └─Sequential: 3-10             [1, 512, 16, 16]          7,078,912
├─UpSample: 1-8                          [1, 256, 32, 32]          --
│    └─ConvTranspose2d: 2-14             [1, 256, 32, 32]          524,544
│    └─DoubleConv: 2-15                  [1, 256, 32, 32]          --
│    │    └─Sequential: 3-11             [1, 256, 32, 32]          1,769,984
├─UpSample: 1-9                          [1, 128, 64, 64]          --
│    └─ConvTranspose2d: 2-16             [1, 128, 64, 64]          131,200
│    └─DoubleConv: 2-17                  [1, 128, 64, 64]          --
│    │    └─Sequential: 3-12             [1, 128, 64, 64]          442,624
├─Conv2d: 1-10                           [1, 19, 64, 64]           2,451

Total params: 124,112,019
Trainable params: 124,112,019
Non-trainable params: 0
Total mult-adds (Units.GIGABYTES): 13.65

Input size (MB): 0.05
Forward/backward pass size (MB): 40.47
Params size (MB): 496.45
Estimated Total Size (MB): 536.97
