==========================================================================================
Layer (type:depth-idx)                   Output Shape              Param #
==========================================================================================
UNet                                     [1, 19, 64, 64]           --
├─DownSample: 1-1                        [1, 64, 64, 64]           --
│    └─DoubleConv: 2-1                   [1, 64, 64, 64]           --
│    │    └─Sequential: 3-1              [1, 64, 64, 64]           38,720
│    └─MaxPool2d: 2-2                    [1, 64, 32, 32]           --
├─DownSample: 1-2                        [1, 128, 32, 32]          --
│    └─DoubleConv: 2-3                   [1, 128, 32, 32]          --
│    │    └─Sequential: 3-2              [1, 128, 32, 32]          221,440
│    └─MaxPool2d: 2-4                    [1, 128, 16, 16]          --
├─DownSample: 1-3                        [1, 256, 16, 16]          --
│    └─DoubleConv: 2-5                   [1, 256, 16, 16]          --
│    │    └─Sequential: 3-3              [1, 256, 16, 16]          885,248
│    └─MaxPool2d: 2-6                    [1, 256, 8, 8]            --
├─DownSample: 1-4                        [1, 512, 8, 8]            --
│    └─DoubleConv: 2-7                   [1, 512, 8, 8]            --
│    │    └─Sequential: 3-4              [1, 512, 8, 8]            3,539,968
│    └─MaxPool2d: 2-8                    [1, 512, 4, 4]            --
├─DoubleConv: 1-5                        [1, 1024, 4, 4]           --
│    └─Sequential: 2-9                   [1, 1024, 4, 4]           --
│    │    └─Conv2d: 3-5                  [1, 1024, 4, 4]           4,719,616
│    │    └─ReLU: 3-6                    [1, 1024, 4, 4]           --
│    │    └─Conv2d: 3-7                  [1, 1024, 4, 4]           9,438,208
│    │    └─ReLU: 3-8                    [1, 1024, 4, 4]           --
├─UpSample: 1-6                          [1, 512, 8, 8]            --
│    └─ConvTranspose2d: 2-10             [1, 512, 8, 8]            2,097,664
│    └─DoubleConv: 2-11                  [1, 512, 8, 8]            --
│    │    └─Sequential: 3-9              [1, 512, 8, 8]            7,078,912
├─UpSample: 1-7                          [1, 256, 16, 16]          --
│    └─ConvTranspose2d: 2-12             [1, 256, 16, 16]          524,544
│    └─DoubleConv: 2-13                  [1, 256, 16, 16]          --
│    │    └─Sequential: 3-10             [1, 256, 16, 16]          1,769,984
├─UpSample: 1-8                          [1, 128, 32, 32]          --
│    └─ConvTranspose2d: 2-14             [1, 128, 32, 32]          131,200
│    └─DoubleConv: 2-15                  [1, 128, 32, 32]          --
│    │    └─Sequential: 3-11             [1, 128, 32, 32]          442,624
├─UpSample: 1-9                          [1, 64, 64, 64]           --
│    └─ConvTranspose2d: 2-16             [1, 64, 64, 64]           32,832
│    └─DoubleConv: 2-17                  [1, 64, 64, 64]           --
│    │    └─Sequential: 3-12             [1, 64, 64, 64]           110,720
├─Conv2d: 1-10                           [1, 19, 64, 64]           1,235
==========================================================================================
Total params: 31,032,915
Trainable params: 31,032,915
Non-trainable params: 0
Total mult-adds (Units.GIGABYTES): 3.42
==========================================================================================
Input size (MB): 0.05
Forward/backward pass size (MB): 20.55
Params size (MB): 124.13
Estimated Total Size (MB): 144.73
…
